SphereNet(
  (init_e): init(
    (emb): Embedding(95, 128)
    (lin_rbf_0): Linear(in_features=6, out_features=128, bias=True)
    (lin): Linear(in_features=384, out_features=128, bias=True)
    (lin_rbf_1): Linear(in_features=6, out_features=128, bias=False)
  )
  (init_v): update_v(
    (lin_up): Linear(in_features=128, out_features=256, bias=True)
    (lins): ModuleList(
      (0): Linear(in_features=256, out_features=256, bias=True)
      (1): Linear(in_features=256, out_features=256, bias=True)
      (2): Linear(in_features=256, out_features=256, bias=True)
    )
    (lin): Linear(in_features=256, out_features=1, bias=False)
  )
  (init_u): update_u()
  (emb): emb(
    (dist_emb): dist_emb(
      (envelope): Envelope()
    )
    (angle_emb): angle_emb()
    (torsion_emb): torsion_emb()
  )
  (update_vs): ModuleList(
    (0): update_v(
      (lin_up): Linear(in_features=128, out_features=256, bias=True)
      (lins): ModuleList(
        (0): Linear(in_features=256, out_features=256, bias=True)
        (1): Linear(in_features=256, out_features=256, bias=True)
        (2): Linear(in_features=256, out_features=256, bias=True)
      )
      (lin): Linear(in_features=256, out_features=1, bias=False)
    )
    (1): update_v(
      (lin_up): Linear(in_features=128, out_features=256, bias=True)
      (lins): ModuleList(
        (0): Linear(in_features=256, out_features=256, bias=True)
        (1): Linear(in_features=256, out_features=256, bias=True)
        (2): Linear(in_features=256, out_features=256, bias=True)
      )
      (lin): Linear(in_features=256, out_features=1, bias=False)
    )
    (2): update_v(
      (lin_up): Linear(in_features=128, out_features=256, bias=True)
      (lins): ModuleList(
        (0): Linear(in_features=256, out_features=256, bias=True)
        (1): Linear(in_features=256, out_features=256, bias=True)
        (2): Linear(in_features=256, out_features=256, bias=True)
      )
      (lin): Linear(in_features=256, out_features=1, bias=False)
    )
    (3): update_v(
      (lin_up): Linear(in_features=128, out_features=256, bias=True)
      (lins): ModuleList(
        (0): Linear(in_features=256, out_features=256, bias=True)
        (1): Linear(in_features=256, out_features=256, bias=True)
        (2): Linear(in_features=256, out_features=256, bias=True)
      )
      (lin): Linear(in_features=256, out_features=1, bias=False)
    )
  )
  (update_es): ModuleList(
    (0): update_e(
      (lin_rbf1): Linear(in_features=6, out_features=8, bias=False)
      (lin_rbf2): Linear(in_features=8, out_features=128, bias=False)
      (lin_sbf1): Linear(in_features=18, out_features=8, bias=False)
      (lin_sbf2): Linear(in_features=8, out_features=64, bias=False)
      (lin_t1): Linear(in_features=54, out_features=8, bias=False)
      (lin_t2): Linear(in_features=8, out_features=64, bias=False)
      (lin_rbf): Linear(in_features=6, out_features=128, bias=False)
      (lin_kj): Linear(in_features=128, out_features=128, bias=True)
      (lin_ji): Linear(in_features=128, out_features=128, bias=True)
      (lin_down): Linear(in_features=128, out_features=64, bias=False)
      (lin_up): Linear(in_features=64, out_features=128, bias=False)
      (layers_before_skip): ModuleList(
        (0): ResidualLayer(
          (lin1): Linear(in_features=128, out_features=128, bias=True)
          (lin2): Linear(in_features=128, out_features=128, bias=True)
        )
      )
      (lin): Linear(in_features=128, out_features=128, bias=True)
      (layers_after_skip): ModuleList(
        (0): ResidualLayer(
          (lin1): Linear(in_features=128, out_features=128, bias=True)
          (lin2): Linear(in_features=128, out_features=128, bias=True)
        )
        (1): ResidualLayer(
          (lin1): Linear(in_features=128, out_features=128, bias=True)
          (lin2): Linear(in_features=128, out_features=128, bias=True)
        )
      )
    )
    (1): update_e(
      (lin_rbf1): Linear(in_features=6, out_features=8, bias=False)
      (lin_rbf2): Linear(in_features=8, out_features=128, bias=False)
      (lin_sbf1): Linear(in_features=18, out_features=8, bias=False)
      (lin_sbf2): Linear(in_features=8, out_features=64, bias=False)
      (lin_t1): Linear(in_features=54, out_features=8, bias=False)
      (lin_t2): Linear(in_features=8, out_features=64, bias=False)
      (lin_rbf): Linear(in_features=6, out_features=128, bias=False)
      (lin_kj): Linear(in_features=128, out_features=128, bias=True)
      (lin_ji): Linear(in_features=128, out_features=128, bias=True)
      (lin_down): Linear(in_features=128, out_features=64, bias=False)
      (lin_up): Linear(in_features=64, out_features=128, bias=False)
      (layers_before_skip): ModuleList(
        (0): ResidualLayer(
          (lin1): Linear(in_features=128, out_features=128, bias=True)
          (lin2): Linear(in_features=128, out_features=128, bias=True)
        )
      )
      (lin): Linear(in_features=128, out_features=128, bias=True)
      (layers_after_skip): ModuleList(
        (0): ResidualLayer(
          (lin1): Linear(in_features=128, out_features=128, bias=True)
          (lin2): Linear(in_features=128, out_features=128, bias=True)
        )
        (1): ResidualLayer(
          (lin1): Linear(in_features=128, out_features=128, bias=True)
          (lin2): Linear(in_features=128, out_features=128, bias=True)
        )
      )
    )
    (2): update_e(
      (lin_rbf1): Linear(in_features=6, out_features=8, bias=False)
      (lin_rbf2): Linear(in_features=8, out_features=128, bias=False)
      (lin_sbf1): Linear(in_features=18, out_features=8, bias=False)
      (lin_sbf2): Linear(in_features=8, out_features=64, bias=False)
      (lin_t1): Linear(in_features=54, out_features=8, bias=False)
      (lin_t2): Linear(in_features=8, out_features=64, bias=False)
      (lin_rbf): Linear(in_features=6, out_features=128, bias=False)
      (lin_kj): Linear(in_features=128, out_features=128, bias=True)
      (lin_ji): Linear(in_features=128, out_features=128, bias=True)
      (lin_down): Linear(in_features=128, out_features=64, bias=False)
      (lin_up): Linear(in_features=64, out_features=128, bias=False)
      (layers_before_skip): ModuleList(
        (0): ResidualLayer(
          (lin1): Linear(in_features=128, out_features=128, bias=True)
          (lin2): Linear(in_features=128, out_features=128, bias=True)
        )
      )
      (lin): Linear(in_features=128, out_features=128, bias=True)
      (layers_after_skip): ModuleList(
        (0): ResidualLayer(
          (lin1): Linear(in_features=128, out_features=128, bias=True)
          (lin2): Linear(in_features=128, out_features=128, bias=True)
        )
        (1): ResidualLayer(
          (lin1): Linear(in_features=128, out_features=128, bias=True)
          (lin2): Linear(in_features=128, out_features=128, bias=True)
        )
      )
    )
    (3): update_e(
      (lin_rbf1): Linear(in_features=6, out_features=8, bias=False)
      (lin_rbf2): Linear(in_features=8, out_features=128, bias=False)
      (lin_sbf1): Linear(in_features=18, out_features=8, bias=False)
      (lin_sbf2): Linear(in_features=8, out_features=64, bias=False)
      (lin_t1): Linear(in_features=54, out_features=8, bias=False)
      (lin_t2): Linear(in_features=8, out_features=64, bias=False)
      (lin_rbf): Linear(in_features=6, out_features=128, bias=False)
      (lin_kj): Linear(in_features=128, out_features=128, bias=True)
      (lin_ji): Linear(in_features=128, out_features=128, bias=True)
      (lin_down): Linear(in_features=128, out_features=64, bias=False)
      (lin_up): Linear(in_features=64, out_features=128, bias=False)
      (layers_before_skip): ModuleList(
        (0): ResidualLayer(
          (lin1): Linear(in_features=128, out_features=128, bias=True)
          (lin2): Linear(in_features=128, out_features=128, bias=True)
        )
      )
      (lin): Linear(in_features=128, out_features=128, bias=True)
      (layers_after_skip): ModuleList(
        (0): ResidualLayer(
          (lin1): Linear(in_features=128, out_features=128, bias=True)
          (lin2): Linear(in_features=128, out_features=128, bias=True)
        )
        (1): ResidualLayer(
          (lin1): Linear(in_features=128, out_features=128, bias=True)
          (lin2): Linear(in_features=128, out_features=128, bias=True)
        )
      )
    )
  )
  (update_us): ModuleList(
    (0): update_u()
    (1): update_u()
    (2): update_u()
    (3): update_u()
  )
)
init_e.emb.weight
[95, 128] 12160
init_e.lin_rbf_0.weight
[128, 6] 768
init_e.lin_rbf_0.bias
[128] 128
init_e.lin.weight
[128, 384] 49152
init_e.lin.bias
[128] 128
init_e.lin_rbf_1.weight
[128, 6] 768
init_v.lin_up.weight
…
